saved_model.pth (torch, 273175 bytes, 6 tensors)

fc1.weight f4 [128, 512]
00000000: 1048 60bd 22cc d93b b46c 9a3d 50c0 283c
00000010: a4a2 4abd 7539 6b3d 4767 a93c fa3c 65bc
00000020: cd5c 1e3d 7f2a 043b 175d 923c db28 c9bd
00000030: 8892 af3d de06 03bd 7514 ba3b 9859 4cbc
00000040: 8b5f 0c3c 1779 3abc ad05 5bbb 4c42 3f3c
00000050: bfb2 513d 85a1 e73c 88af 5d3d a52f 80bd
00000060: fa5f 163d 652e 313d b689 ea3b 7fd3 403c
00000070: e353 6b3d 1c48 0e3d f757 61bc 30e8 013c
00000080: af6e 2b3c 6dc4 0e3b aaeb e0bc 29f7 8cbc
00000090: 591f 25bc fca3 893d 1b96 a0bd 8055 26bd
000000a0: 2489 a13d 96b9 143d 63cc a63d 5b53 debb
000000b0: 6df8 903d 67c1 80bc 33b8 02bd 4141 41bd
000000c0: cc95 8f3d ad26 58bd b167 86bc bfb3 c53d
000000d0: 3d23 563d 9fc6 553d a3ec 2fbc 6b6e 6b3b
000000e0: 413b 0d3c bd7c a2b9 f975 1c3d c6ef ddbc
000000f0: 85c9 b03c 2c1d 633d 1a52 03bd e430 d53c
00000100: b595 4d3d 6011 ae3c 6108 d1bc c01b b03b
00000110: b0d9 933d 54fe fa3d 25d7 5dbc 6e34 70bd
00000120: e769 793d 4285 5c3d 55af 583d 6a7c 72bd
00000130: 5b40 653c 3fed 613c 5838 5ebd 854b 04ba
00000140: 7a2f 4cbb b4a7 bebd 185d 163d 8a15 6eba
00000150: e486 873d 4428 883d 6de5 773d d023 3dbd
00000160: 86e5 20bd 55d1 763d 1b2a 033d ce17 b93c
00000170: 891c 4e3d 197c 873d 6bb1 7dbb 724c fd3c
00000180: d049 45bd 8214 043c 22e4 a73c 93f4 5a3d
00000190: bddd 983b 2c16 c7bc 6806 3abd d8fc b7bc
000001a0: 4f46 1ebb e30e a8bb fb56 7a3d dbc2 693d
000001b0: 0ab9 28bc a768 efbd d2e1 de3d be67 60bd
000001c0: 8769 a43d 4d3f a13d 871d 293d e423 d8bc
000001d0: 39fe 303d 0236 743c 9a8c 55bd 02aa 5b3d
000001e0: 391b d43c 854c 30bd edc3 efbc fdfa 87bd
000001f0: ee9e 193d e335 923c f54d 093d 948f 8abd
00000200: e932 8dbd 5be4 1d3d b185 18bd 0296 7abc
00000210: cef9 bd3d 0236 c93d e340 56bc ff8f 63bc
00000220: 2d49 703d 936e 50bc fb34 bb3c bb4b c0bc
00000230: 3376 acbd 93e5 3fbd f7f5 fd3c f6cc 4cbd
00000240: c9b0 953d f6f2 673c 0d8c fbbd 47b9 ddbc
00000250: 0c11 2e3d 601a 0b3d 1747 253d 42c6 97bd
00000260: f055 03bd ca9d 473d 282b 5f3d 1888 35bd
00000270: 28fc d5bc 03b1 3f3d 672b 92bd 7925 1c3b
00000280: 583a 853d 2388 b63c 3b5d 00bd ac72 723d
00000290: 17ff 093d d8b8 a33d 2955 b8bc e52d 50bc
000002a0: c1da b03b 9365 d23c a48c 7e3d 36e6 973c
000002b0: c99f b7bc d0ca afbc 393b d9bb 1915 783d
000002c0: 9b06 69bd bc02 ca3c 0a59 a23a 612f 6c3c
000002d0: aa9f 98bc 59fa 5fbb eee7 203d 7261 10bd
000002e0: 07c3 68bc 069c b83d 9789 e0bb 0e84 993d
000002f0: a111 153d e127 b73d 84e6 3e3d 5400 b23c
00000300: 8bce 55bd 58f0 c9bc cb48 21bd 353f be3c
00000310: e623 3b3d 7c25 aa3c e950 093d ef4f 2a3d
00000320: e2ce 2b3d 20b2 293c 89f9 f83a 4ce0 1abc
00000330: 8789 f7bb 665f c03c d8f7 f53b eef6 9cbc
00000340: a4eb 68bc 9112 d2bb 689c cdbc f04d 263d
00000350: ab22 d43d 731f 903b e161 5e3d d8ae 813d
00000360: 2419 2f3b 2a3c af3d 6879 bf3c acad 46bc
00000370: d6e9 703d cb06 b0bb ea23 8fbd a068 8f3d
00000380: c7dc f3bc 1277 9cbc b352 ac3d c4e3 c63d
00000390: 3519 d23c 6c6a 823d b5ff 82bc b374 443c
000003a0: c2f4 ecbc 404c 87bc 5149 8b3d 3c57 5f3b
000003b0: a5f2 d93c 46e7 01bc 3592 083d 2f4e 9dbc
000003c0: d62d 5c3d 4df6 0d3c cf92 723d a61d f4bc
000003d0: 0c9e 063d 6e7d d23c 9057 97bc 0552 ab3d
000003e0: a559 553c 1088 463d 1f85 5fbb 4fee 24bd
000003f0: a202 0abd 1fa3 243d d131 573d c875 3d3d
-0.054756224 0.006646649 0.07540265 0.010299757 -0.049471512 0.057427842 0.02067913 -0.013991589
0.03866272 0.0020166931 0.017866654 -0.09822246 0.085728705 -0.03198897 0.005678708 -0.012472533
0.008567701 -0.011381409 -0.003342013 0.011673521 0.051195856 0.02827526 0.054122478 -0.062590875
0.036712624 0.043257136 0.0071575297 0.011769175 0.057453047 0.034736738 -0.013753883 0.007928893
0.010463401 0.002178456 -0.027456123 -0.017207699 -0.010078275 0.06720731 -0.0784113 -0.040608883
0.078874856 0.0363098 0.081444524 -0.006784839 0.070786335 -0.015717221 -0.031913947 -0.04718137
0.07010993 -0.05277126 -0.016406866 0.096534245 0.0522797 0.052191373 -0.010737571 0.0035923969
0.008620084 -0.00030991985 0.038198445 -0.027091872 0.021580467 0.055447742 -0.03206072 0.02602429
0.0501916 0.02124852 -0.02551669 0.005374402 0.07219255 0.122555405 -0.013540064 -0.05864375
0.060892012 0.053838022 0.052901585 -0.05920068 0.013992394 0.013789474 -0.054252952 -0.00050466537
-0.0031156228 -0.093093306 0.036709875 -0.0009082189 0.06617525 0.06648305 0.06052153 -0.04617673
-0.03928139 0.06025823 0.032022577 0.022594359 0.050320182 0.066154666 -0.0038710486 0.030920241
-0.048166096 0.00806153 0.020494524 0.0534559 0.004665105 -0.024302565 -0.045416266 -0.022459432
-0.0024150794 -0.0051287278 0.061118107 0.057070594 -0.010298023 -0.11689883 0.108829156 -0.054786436
0.0802794 0.07873402 0.041287925 -0.026384301 0.043211196 0.014905455 -0.05213604 0.05362893
0.025891887 -0.043041725 -0.02926823 -0.06639669 0.037505083 0.01784796 0.03352161 -0.067656666
-0.06894476 0.038547855 -0.037236873 -0.015294554 0.09276162 0.09824754 -0.013076994 -0.013889312
0.058663536 -0.012721675 0.022852411 -0.023473611 -0.08420982 -0.0468498 0.031001074 -0.050000153
0.0730911 0.0141570475 -0.12282572 -0.027065886 0.042496726 0.0339607 0.040351 -0.074108616
-0.03206438 0.048734464 0.054484516 -0.044319242 -0.026121214 0.04679967 -0.071371846 0.0023826046
0.06505269 0.022281712 -0.03133891 0.05919139 0.03369054 0.079942405 -0.022501545 -0.012706255
0.0053971712 0.0256832 0.062145844 0.01854239 -0.022415059 -0.021459013 -0.0066293743 0.060566995
-0.056891065 0.024659507 0.0012386155 0.014415593 -0.018630821 -0.0034176318 0.039283685 -0.03524918
-0.014206654 0.09014134 -0.0068523395 0.074958906 0.036393765 0.08943153 0.046606556 0.021728672
-0.052198928 -0.024650738 -0.03937606 0.023223499 0.045688532 0.020769827 0.033524428 0.041580137
0.041945346 0.01035741 0.0018995266 -0.009452891 -0.0075542363 0.02348299 0.007506352 -0.019160714
-0.014216337 -0.0064109047 -0.025098994 0.04060167 0.10358175 0.0043982803 0.054292563 0.06332177
0.0026717866 0.08556397 0.02337332 -0.012126368 0.058816753 -0.0053719035 -0.06989272 0.070023775
-0.02976836 -0.019099746 0.08414211 0.097114116 0.025646785 0.063679546 -0.015991071 0.011990714
-0.028925303 -0.016515851 0.06801093 0.0034079095 0.02660496 -0.007928675 0.03334256 -0.01920232
0.05375465 0.00866468 0.05922204 -0.029799294 0.03286557 0.025694575 -0.01847437 0.08365253
0.013021861 0.048469603 -0.0034106446 -0.04026633 -0.033693917 0.040194627 0.052537743 0.046254903

fc1.bias f4 [128]
00000000: 5150 1a3d a1a0 fdbc dbc1 a83c 642b 7ebc
00000010: 9bc8 033d 451a 6d3c 89de 29bc 0537 b8bc
00000020: c126 043d c88a 093c 8e84 033d 370d 823b
00000030: be91 11bd 5def 653c 2031 9c3a afed 99bc
00000040: 9d7b 09bd e21c 483c b17d 41bd edbe 69bc
00000050: 8786 33bd 83cb 00bd 6f57 cc3c 5558 5a3c
00000060: edc2 2bba fd28 173b 6a62 a43c 859a fb3a
00000070: 733b a6bc 85b5 b4bc 6aa6 913c 2636 033d
00000080: 67a4 c73c 44be 8f3d b99b bdbc e269 56bc
00000090: b586 1fbc 206e cebc fce6 d73c 2260 d13c
000000a0: 00ce 6f3b 13bd 39bc dcad 013c 2468 38bd
000000b0: a71e 153d 106f 163d 368a 1e3c 9fd0 383c
000000c0: e3b7 fbbb 8b71 5abc b229 0b3d 0f27 143c
000000d0: b712 d7bc c57c 313c 681d a53b 0e05 453d
000000e0: 8f37 c4bc d8b5 283d a614 863c e405 47bc
000000f0: f1b3 263d 236e e83c c46b 113d 2056 d3bc
00000100: d488 cabc 3f1d 80bc 644c 11bb 7393 1bbd
00000110: 16e5 753c 8da4 8dbc 5446 f33c 7f2c 49bc
00000120: b5aa 383d cb02 49bc a475 a2ba 885f f8bc
00000130: c771 073d 17c6 743c f47f ccbc eb8a 6b3a
00000140: 0476 82bc 06aa 103c 696d dc3c ccf1 473d
00000150: febf 49bd 5ac8 dfbb ea7e 963c f1f6 0a3d
00000160: d69e 16bd fa86 3e3d 2c18 3dbd b270 bc3c
00000170: dd8a b63c 25e7 1a3d 6e99 da3c a107 163d
00000180: b007 2c3d 1d69 95bc 67be 2b3d 552f a1bc
00000190: a83c d73c b092 8bbc 2b49 39bc b756 973b
000001a0: fa96 653c 6fc3 5d3c 4797 aa3b 80bd d83c
000001b0: d859 2b3d 5a7b b5bb 0836 9a3c 2586 3ebc
000001c0: 639d 1a3c 728d 18bd fbbb 36bb cfe2 093c
000001d0: cbaf 883d 374e d93c a52a 4f3c 9007 8ebc
000001e0: 9ec8 d53c 9f53 8a3d 2c7d 493d ea7c a73c
000001f0: 4f0a 863d d131 9c3b 66f1 29bd 0b4d 813b
0.037674252 -0.030960383 0.02060025 -0.015513275 0.032173734 0.014471595 -0.010367998 -0.022487173
0.03226352 0.008394904 0.032108836 0.0039688605 -0.03553938 0.014034119 0.0011916496 -0.018790094
-0.033565152 0.012213917 -0.04723901 -0.014266712 -0.043829467 -0.031444084 0.024944035 0.013326724
-0.00065521785 0.0023065202 0.020066459 0.0019195831 -0.02029202 -0.022059212 0.017779548 0.03203406
0.024370385 0.07018712 -0.023145543 -0.013086768 -0.0097367065 -0.025198996 0.02635526 0.025558535
0.0036591291 -0.011336583 0.007914986 -0.04502119 0.036406185 0.03672701 0.009676507 0.011280208
-0.007681833 -0.013332735 0.03397531 0.009042515 -0.026254041 0.01083297 0.005038906 0.048100524
-0.023952274 0.041189045 0.016367268 -0.0121474005 0.04069895 0.02837283 0.035503164 -0.025797904
-0.024723448 -0.015638946 -0.0022170777 -0.037982415 0.015008232 -0.017290378 0.029696621 -0.012278675
0.045084674 -0.012268732 -0.0012394679 -0.03031899 0.03306749 0.014939806 -0.024963357 0.0008985239
-0.015925415 0.008829599 0.02690764 0.04881458 -0.049255364 -0.0068293037 0.018371064 0.033926908
-0.03677257 0.046515442 -0.04616563 0.023002956 0.022283012 0.037818093 0.02668449 0.03662837
0.04199952 -0.018238598 0.04192963 -0.01967589 0.02627404 -0.01703772 -0.0113089485 0.0046184915
0.014013046 0.0135353645 0.005206022 0.026457548 0.04183373 -0.0055383863 0.018824592 -0.011628662
0.009436938 -0.037244268 -0.0027883041 0.008415892 0.06674155 0.026526554 0.012644445 -0.01733759
0.026096638 0.06754231 0.04919164 0.020445306 0.06544935 0.0047666808 -0.04148998 0.003945952

fc2.weight f4 [16, 128]
00000000: 30e7 b03d 6ad7 e63d 783f 9f3d da1a 42bd
00000010: 84df 403d a19c 013e 1234 ecbd 62cf 173c
00000020: dc2b 643c d112 11bb 295a 2f3d 80d0 023e
00000030: da19 7bbc a8ea 76bd 9338 b4bd b9ac 95bc
00000040: 5571 323e 3562 0dbc 089f 3f3d 6000 87bb
00000050: 9a21 a5bd a0a2 3e3c 9f7d 8e3d 085e 43bd
00000060: c225 87bd 95b7 e73c f140 5e3c 36d6 a23d
00000070: 769d ec3c c8df 903d ae9c 9bbd 035c 22bd
00000080: 383f 8bbc 3055 e6bd 8077 2c3d 3d61 b9bc
00000090: 8560 183d 38ac a1bd 4453 b13d 3a03 ecbd
000000a0: 38ad c03c f753 1f3e 599a 90bd acc6 f5bc
000000b0: 8ee1 99bb e849 2e3d 2b5c cc3d 6c33 8ebd
000000c0: 12cb 2fbd a46f ff3d fb71 eabd ced9 863d
000000d0: 550f a6bc a191 36bd 655b cf3d 61f2 683c
000000e0: a784 013e c7fa 7ebd 956c bdbc 9c68 273e
000000f0: 9a16 cc3b 3bad b53d 4591 d83d 64f8 28bd
00000100: 7b43 343d ddc2 2d3e 1751 f4bc ccbc 513c
00000110: f489 313d 151c 593e 6d25 ccbc 9599 3dbc
00000120: b1a3 adbc 5374 ffbd 1777 3fbc 225f b93d
00000130: 1b90 293b bd2e 943d 67e3 d83d b097 3fbc
00000140: 5e4d a0bd 6974 713c f080 3c3d 59c5 e53d
00000150: cf0d 953d 1e7d 95bc 49a8 04be cfd4 7d3c
00000160: 9e27 2ebd 2852 19be 0238 683d 0ef8 613d
00000170: 1ef7 12be 51d6 023e 4f90 a83d 11e5 a03d
00000180: ae0b 08be e6a4 bbbd 5dcd 33bb 2149 983d
00000190: 903d f13d 0106 f83d c39c a73d 7caa 65bd
000001a0: f0d6 8fbd 5f77 703d 4d77 02be a67b a93d
000001b0: 613c d23d 76bf b43d 67d1 063d 7fee 9e3d
000001c0: fa29 b6bd e657 eb3c ab2d 41bd 4216 80bd
000001d0: c562 cebc f638 603c 0b21 32bd ccf2 45bd
000001e0: a972 6e3d f29f fcbc ef5d 89bd 71d1 81bd
000001f0: 2b8d 2bbe dfbe cdbd e239 483d 983e 913d
00000200: 0e19 333e 03ea 0f3d a084 89bb 3143 1bbd
00000210: 8c36 24be b61b 133e 6b33 903d dd69 6dbd
00000220: 1f82 a5bd a1c0 8a3d d9c0 94bd 5626 0cbd
00000230: f350 a03d 4017 59bd 90da 89bd 20a5 2b3c
00000240: 947c e5bd 581a 953d 3f92 1abb 08b4 40bd
00000250: a49d 4e3d 0f7a 8a3d f525 983d 9b93 3bbd
00000260: 94c9 efbc 21db 2dbd 96fa 993d 0ef0 843d
00000270: 5846 03bc e85f 3b3e f9a4 9a3d c5ac 5d3c
00000280: 1308 1a3d b9c1 af3d 0174 113e 781d 6fbc
00000290: 8dbb 8d3d 0ab5 afbd 7ac8 123e f50d b9bd
000002a0: cad4 9fbd 2aa3 02bd 3019 3abe 4611 353d
000002b0: 5d53 56bd 4aa7 913d 102e 1cbd 5d1a 8f3d
000002c0: f374 923d 6754 68bd 8fcf 43be a4fe b23c
000002d0: 1314 a8bd e4c9 cabd 26ac 933d c199 d1bd
000002e0: 57b0 cdbd 6e63 e03d a82e 1b3e 6d14 a6bd
000002f0: 606a 0a3d e891 ac3d a4fa 31be f725 593d
00000300: 2193 b43d e266 ac3d e8b9 f33c 3bca 243e
00000310: 2192 543e 5bd2 cdbd 1315 12be 801e 81bc
00000320: c05a abba 82e5 ba3d 73dc d7bc 0df5 0f3d
00000330: c991 0e3e 8d00 0fbc c997 b63d b676 163e
00000340: 3951 083e ea8b 81bc 8e30 5cbd 12ba 08bd
00000350: e0b1 613b b0ad d1bc 3c69 88bd d4cd 05be
00000360: e8c8 b4bd 5e5f 0dbd a45e 9f3c 6263 febd
00000370: 6e1b e73d f4e2 c03d 0aa9 2c3d e092 d63d
00000380: ea66 fcbd ce1b 363e 7cf8 bf3d 1031 7a3d
00000390: 81f3 d4bc 8963 9fbd 8a64 ddbc c81a a1bc
000003a0: fca7 7ebd f8b9 973d c281 ea3d c869 393c
000003b0: bff5 0cbd b8f6 e03d 7cb4 1c3c 4ccb a1bd
000003c0: f24d 023e 60b0 e0bb 9078 3e3d 4092 02bc
000003d0: f6f3 ae3d 789e c1bc 9bf5 0c3e 427e 88bd
000003e0: 983b 0e3e c540 853d 9b59 d33d 4e45 4fbd
000003f0: 3bfd fabd 82d5 993c 8cdd 4b3d 56e4 adbc
0.086378455 0.11271556 0.077757776 -0.04738889 0.04708816 0.12657405 -0.11533369 0.0092657525
0.0139264725 -0.002213646 0.042810593 0.12774849 -0.015325988 -0.06028238 -0.08799853 -0.018270837
0.17426045 -0.008629371 0.046782523 -0.0041199178 -0.080630496 0.0116354525 0.06957554 -0.047697097
-0.065989986 0.02828578 0.013565288 0.07951014 0.028883677 0.07073933 -0.07598244 -0.03963853
-0.016997918 -0.11246717 0.04210615 -0.022629375 0.037201423 -0.07894176 0.0865846 -0.11524053
0.023520097 0.15559374 -0.070606895 -0.03000196 -0.0046960777 0.04255095 0.09978517 -0.06943402
-0.042918272 0.12472466 -0.11447521 0.06584512 -0.020270983 -0.044572476 0.10124854 0.014217944
0.12648259 -0.06225088 -0.023123065 0.16348499 0.0062282803 0.08870932 0.10574583 -0.04125251
0.044009667 0.16968866 -0.029823823 0.01280136 0.043344453 0.21202119 -0.02492019 -0.011572261
-0.021196218 -0.12473359 -0.011686108 0.09051348 0.0025873247 0.07235477 0.105902486 -0.01169388
-0.078272566 0.014737227 0.046021402 0.11219282 0.072780244 -0.018248137 -0.1295482 0.015492632
-0.04251825 -0.14972746 0.05669404 0.055168204 -0.1435208 0.12777068 0.0823065 0.07856191
-0.13285705 -0.09162311 -0.0027435638 0.07435823 0.1177932 0.1211052 0.08184197 -0.05607079
-0.07023418 0.05870759 -0.12740822 0.08275537 0.102654226 0.08825581 0.032914545 0.07760333
-0.08894725 0.028728437 -0.047162693 -0.06254245 -0.025193581 0.013685456 -0.043488543 -0.048327252
0.058214817 -0.030837987 -0.067073695 -0.06338776 -0.1675307 -0.100461714 0.048883326 0.07092017
0.17490026 0.03513528 -0.0041967183 -0.037905876 -0.16036433 0.1436604 0.07041057 -0.057962287
-0.08081459 0.06775022 -0.07263345 -0.034216247 0.0782794 -0.05300069 -0.067311406 0.010476381
-0.11205402 0.07280415 -0.0023585705 -0.04704669 0.050443307 0.06761562 0.07429115 -0.045795064
-0.029270925 -0.042445306 0.075184986 0.06491099 -0.008012377 0.18298304 0.07550997 0.013529961
0.037605356 0.085818715 0.14204408 -0.014594428 0.06920538 -0.08579452 0.14334288 -0.09035865
-0.07804258 -0.031893887 -0.18173671 0.044205926 -0.052325595 0.07111986 -0.038129866 0.0698745
0.071512125 -0.056721117 -0.19122146 0.021849938 -0.08206954 -0.09901789 0.07210569 -0.10234404
-0.100434 0.10956465 0.15154517 -0.08109365 0.033792853 0.08426267 -0.17380768 0.05301472
0.08817125 0.08418061 0.029751733 0.1609277 0.20758869 -0.10049888 -0.14265852 -0.015761614
-0.001307331 0.091258064 -0.026350236 0.035145808 0.139228 -0.008728159 0.089156695 0.14693722
0.13312234 -0.015813787 -0.053757243 -0.033380575 0.0034438297 -0.025595516 -0.06660697 -0.13066798
-0.08827382 -0.034514777 0.019454308 -0.124212995 0.11284529 0.09418288 0.042153396 0.10477233
-0.12324317 0.17784044 0.093735665 0.061081946 -0.025995018 -0.07782657 -0.02702548 -0.01966609
-0.06217192 0.074085176 0.114505306 0.011316724 -0.03441405 0.10984558 0.009564515 -0.07900104
0.12725046 -0.006856963 0.046501696 -0.007969439 0.085426256 -0.023635134 0.13765566 -0.06664707
0.1388992 0.065064944 0.10319825 -0.050603203 -0.12255331 0.018778566 0.04977183 -0.021227043

fc2.bias f4 [16]
00000000: 5b56 853c 203c a63c 800f 18bd 1818 ba3d
00000010: a20d ad3c 9b1f 023d a000 943d 3170 b7bc
00000020: b52a 1fbc b625 443d f2fb 183c 3c7d 8e3d
00000030: d78b 143d d382 7c3d 8105 97bd 0386 77bd
0.016276529 0.020292342 -0.037124157 0.09086627 0.021124665 0.031768423 0.07226682 -0.022392364
-0.009714772 0.047887526 0.009337412 0.0695748 0.036266174 0.0616482 -0.07374097 -0.060430538

fc3.weight f4 [7, 16]
00000000: 2579 6d3e 5cc2 84bd ccd9 f0bd 66fc 8fbe
00000010: a930 42bc f727 563c 56bb 243e 377f 74be
00000020: 791f 053e 06ad ed3d a22e a4bd a466 c63c
00000030: 5fb8 983e 4bc4 51be b098 893d 99e1 c5bd
00000040: 9194 a1be 6aeb 893e a174 603c c5af 87be
00000050: 06d7 6dbe b981 0ebd 14e9 5bbe aaee 44be
00000060: 5d23 383d 4b49 233e bc37 04be 12ec 463e
00000070: 2a7b ecbd 72d2 213d 6310 1fbe 7cbe 02bd
00000080: 1763 12be 3cfb 4f3d f735 d4be 7bb3 943e
00000090: 9274 19be 74d8 2b3e adc9 7d3d cbfb c1bd
000000a0: daf7 fe3d 31f3 4ebe 73c2 86bd 1439 e1bc
000000b0: fb07 05be 984e 033d acdf 4a3e 523a 82bc
000000c0: 4048 abbe bbd5 82be 9b20 643d 4f78 693e
000000d0: d814 663e 0047 dd3d c77c 1cbe b910 60bd
000000e0: 3a38 86be 65ab cbbd 2a37 a73e f31d aebd
000000f0: 1bfb bbbe 3bfc 233e 711d 0abd 1a8d f63c
00000100: 4356 653e 81ba 323e d304 b73c 2538 603e
00000110: f38a b8be bcb8 da3d bccc b0bd e7a5 80bd
00000120: 6b87 8ebe 88e5 0ebe c183 d03d e448 27be
00000130: 9795 993d c3c1 2b3e 6963 15be 450e 99bd
00000140: 640e 16be 8a72 25be 7afa 8abd 555c 81be
00000150: 468a cd3e dfe0 cf3d f6af 833d 8f7a c53d
00000160: 58e1 4bbe cbc8 5a3e 884d d4be 60fa 4f3e
00000170: d97a 7f3e 8e94 203e 11e5 653e b43e a43d
00000180: 4647 9abe be62 04bf c26f 4d3e 259c 32be
00000190: a416 aebd 10e4 67bd d469 e1bd b6c9 19be
000001a0: a06c 273e a56c 613e 4fc2 5fbe 8f37 3c3e
000001b0: 94cd eebb 0c92 d8ba bf1e 873d 11c9 7abe
0.23190744 -0.064823836 -0.117602915 -0.28122252 -0.011852422 0.013071052 0.16087088 -0.23876654
0.13000287 0.11605267 -0.08016707 0.024218865 0.29828164 -0.20485036 0.06718576 -0.0966217
-0.3155866 0.2693742 0.0136996815 -0.2650129 -0.23226556 -0.034791682 -0.21475631 -0.19231668
0.0449556 0.15945928 -0.12911886 0.19425991 -0.11546929 0.039507337 -0.15533595 -0.03191994
-0.14295612 0.050776705 -0.41447422 0.29043183 -0.14985874 0.16781789 0.06195991 -0.09471854
0.12449618 -0.20209958 -0.06580057 -0.027493037 -0.12991326 0.032057375 0.19811887 -0.01589695
-0.3345356 -0.25553688 0.055695157 0.227998 0.22468889 0.10804558 -0.15281974 -0.054703448
-0.26214772 -0.099448 0.32659274 -0.08501806 -0.36715016 0.16014187 -0.033719484 0.03009658
0.22396187 0.17453958 0.022341168 0.21896417 -0.3604351 0.106797665 -0.086328 -0.06281643
-0.2783769 -0.13954747 0.1018138 -0.163364 0.07499235 0.16773133 -0.14588703 -0.07473425
-0.14653927 -0.16156974 -0.06786056 -0.25265756 0.40144557 0.10150313 0.06430046 0.09642517
-0.1991018 0.21365659 -0.41465402 0.20310354 0.24949206 0.15681669 0.22450663 0.08019772
-0.30132502 -0.5171317 0.20062163 -0.17442377 -0.08500412 -0.05661398 -0.11006513 -0.15018353
0.16350031 0.22014101 -0.21851467 0.18380569 -0.0072876904 -0.0016523018 0.06597661 -0.24490763

fc3.bias f4 [7]
00000000: ebd0 3ebe e126 7abd 215f 61be 2df2 963d
00000010: f6f2 3f3e ba0c 9d3d 5976 20be
-0.18634383 -0.061072234 -0.22008945 0.0737041 0.18745026 0.07668443 -0.15670146
